now = 2021-01-08 13:01:43.000274
date and time = Jan_08_2021_13_01_43
/Users/byrdsmyth/Documents/School/Thesis/CodeBase/Server_HL_Folder
_________________________________________________________________
Layer (type)                 Output Shape              Param #   
=================================================================
input_1 (InputLayer)         (None, 84, 84, 4)         0         
_________________________________________________________________
deepq/q_func/convnet/Conv (C (None, 21, 21, 32)        8224      
_________________________________________________________________
deepq/q_func/convnet/Conv_1  (None, 11, 11, 64)        32832     
_________________________________________________________________
deepq/q_func/convnet/Conv_2  (None, 11, 11, 64)        36928     
_________________________________________________________________
flatten_1 (Flatten)          (None, 7744)              0         
_________________________________________________________________
deepq/q_func/action_value/fu (None, 256)               1982720   
_________________________________________________________________
deepq/q_func/action_value/fu (None, 9)                 2313      
=================================================================
Total params: 2,063,017
Trainable params: 2,063,017
Non-trainable params: 0
_________________________________________________________________
number noops: 1
About to seek pacman
Found color0: [0 0 0] and [0 0 0] and [184  50  50] and [184  50  50] and [0 0 0]
Found color0: [187 187  53] and [0 0 0] and [0 0 0] and [187 187  53] and [187 187  53]
…
